app/src/main/python/sleep_stage_model.tflite (tflite, 502948 bytes, 15 tensors)

arith.constant10 f2 [128]
0	0x2c14	0.0637
1	0x3238	0.1943
2	0x383a	0.5283
3	0x349b	0.2878
4	0x2af6	0.05438
5	0x35c0	0.3594
6	0x32e6	0.2156
7	0x350f	0.3162
8	0x30d3	0.1508
9	0x340c	0.253
10	0x2f65	0.11554
11	0x321b	0.1908
12	0x2b36	0.05634
13	0x320e	0.1892
14	0x2b09	0.05496
15	0x3d31	1.298
16	0x3437	0.2634
17	0x2d5f	0.0839
18	0x34bc	0.296
19	0x34e3	0.3054
20	0x379d	0.4758
21	0x350c	0.3154
22	0x328b	0.2045
23	0x466b	6.418
24	0x3537	0.326
25	0x2dc7	0.0903
26	0x3af2	0.868
27	0x2f57	0.1147
28	0x3be7	0.988
29	0x2e99	0.1031
30	0x3233	0.1937
31	0x3581	0.344
32	0x2b46	0.05682
33	0x33b0	0.2402
34	0x3691	0.4104
35	0x3558	0.334
36	0x2a7b	0.05063
37	0x3045	0.1334
38	0x37a1	0.4768
39	0x2f5b	0.1149
40	0x37cf	0.488
41	0x3acb	0.849
42	0x3cdf	1.218
43	0x2d93	0.0871
44	0x2b09	0.05496
45	0x2c5c	0.0681
46	0x2f30	0.1123
47	0x33dd	0.2457
48	0x2dc2	0.08997
49	0x42ae	3.34
50	0x345b	0.2722
51	0x3466	0.275
52	0x3819	0.512
53	0x3359	0.2296
54	0x358e	0.3472
55	0x2dc7	0.0903
56	0x3572	0.3403
57	0x37f9	0.4983
58	0x36ce	0.4253
59	0x3047	0.1337
60	0x3b87	0.941
61	0x2af2	0.05426
62	0x301d	0.1285
63	0x3347	0.2274
64	0x33a5	0.2389
65	0x355b	0.3347
66	0x3872	0.5557
67	0x3d87	1.382
68	0x2d14	0.07935
69	0x3938	0.6523
70	0x37e5	0.4934
71	0x3542	0.3286
72	0x31d1	0.1818
73	0x33fc	0.2495
74	0x34a2	0.2896
75	0x3009	0.1261
76	0x3367	0.2313
77	0x31d1	0.1818
78	0x32b3	0.2094
79	0x32e3	0.2152
80	0x3e7e	1.623
81	0x3631	0.387
82	0x2d55	0.0833
83	0x31e1	0.1837
84	0x2c17	0.0639
85	0x3449	0.2678
86	0x3662	0.399
87	0x35d3	0.364
88	0x3230	0.1934
89	0x3812	0.509
90	0x373a	0.4517
91	0x3a7e	0.8115
92	0x2dda	0.09143
93	0x359a	0.35
94	0x36a3	0.4148
95	0x2f7e	0.11707
96	0x3040	0.1328
97	0x2c17	0.0639
98	0x37d0	0.4883
99	0x41a8	2.828
100	0x3c4a	1.072
101	0x3410	0.254
102	0x3c7e	1.123
103	0x3cd9	1.212
104	0x3837	0.527
105	0x38db	0.607
106	0x2c36	0.0658
107	0x31ec	0.185
108	0x3c75	1.114
109	0x2f32	0.1124
110	0x2c50	0.0674
111	0x2df8	0.09326
112	0x3ff8	1.992
113	0x3271	0.2013
114	0x3c35	1.052
115	0x312f	0.162
116	0x2e2a	0.0963
117	0x2d23	0.08026
118	0x2f91	0.1182
119	0x2bfa	0.06232
120	0x3187	0.1727
121	0x32f3	0.2172
122	0x3709	0.4397
123	0x3423	0.2585
124	0x3396	0.237
125	0x350c	0.3154
126	0x3a03	0.7515
127	0x389f	0.5776

arith.constant11 f2 [128]
0	0xbc54	-1.082
1	0xb6b9	-0.4202
2	0xb611	-0.3792
3	0xb8ac	-0.584
4	0xbd80	-1.375
5	0xb375	-0.233
6	0xb549	-0.3303
7	0xb518	-0.3184
8	0xb969	-0.6763
9	0xb6a2	-0.4146
10	0xbafa	-0.872
11	0xb859	-0.5435
12	0xbc10	-1.016
13	0xb654	-0.3955
14	0xbd9e	-1.404
15	0xac0f	-0.0634
16	0xb7be	-0.484
17	0xba59	-0.7935
18	0xb56c	-0.3389
19	0xb52a	-0.3228
20	0xb50f	-0.3162
21	0xb2c8	-0.2119
22	0xb831	-0.524
23	0xad17	-0.0795
24	0xb4e6	-0.3062
25	0xbafc	-0.873
26	0xb411	-0.2542
27	0xba56	-0.792
28	0xb019	-0.128
29	0xba73	-0.806
30	0xb9b3	-0.7124
31	0xb617	-0.3806
32	0xbda3	-1.409
33	0xb830	-0.5234
34	0xb58c	-0.3467
35	0xb67d	-0.4055
36	0xbc35	-1.052
37	0xb680	-0.4062
38	0xb532	-0.3247
39	0xba72	-0.8057
40	0xb22f	-0.1932
41	0xb153	-0.1664
42	0xb0bf	-0.1483
43	0xbaf0	-0.867
44	0xbdf4	-1.488
45	0xbb6f	-0.929
46	0xb921	-0.641
47	0xb48b	-0.284
48	0xbc26	-1.037
49	0xac93	-0.0715
50	0xb891	-0.571
51	0xb863	-0.5483
52	0xb410	-0.254
53	0xb845	-0.5337
54	0xb491	-0.2854
55	0xb9fb	-0.7476
56	0xb848	-0.535
57	0xb4c9	-0.299
58	0xb17a	-0.1711
59	0xb94d	-0.6626
60	0xb209	-0.1886
61	0xbc82	-1.127
62	0xbae6	-0.8623
63	0xb833	-0.525
64	0xb4a7	-0.2908
65	0xb1de	-0.1833
66	0xb470	-0.2773
67	0xb016	-0.1277
68	0xb9d4	-0.7285
69	0xb423	-0.2585
70	0xb510	-0.3164
71	0xb681	-0.4065
72	0xb901	-0.6255
73	0xb901	-0.6255
74	0xb759	-0.4592
75	0xbaca	-0.8486
76	0xba0a	-0.755
77	0xb802	-0.501
78	0xb85c	-0.545
79	0xb88c	-0.5684
80	0xb09e	-0.1443
81	0xb560	-0.336
82	0xbcdd	-1.216
83	0xb80b	-0.5054
84	0xbc73	-1.112
85	0xb6f9	-0.4358
86	0xb6b1	-0.4182
87	0xb3b3	-0.2406
88	0xb893	-0.572
89	0xb0b3	-0.1469
90	0xb66e	-0.4019
91	0xb253	-0.1976
92	0xbafc	-0.873
93	0xb834	-0.5254
94	0xb521	-0.3206
95	0xbc05	-1.005
96	0xb935	-0.651
97	0xbd58	-1.336
98	0xb5eb	-0.3699
99	0xae90	-0.10254
100	0xb17d	-0.1715
101	0xb921	-0.641
102	0xb103	-0.1566
103	0xae14	-0.095
104	0xaf72	-0.11633
105	0xb071	-0.1388
106	0xb96c	-0.6777
107	0xb746	-0.4546
108	0xafc4	-0.12134
109	0xbbd5	-0.979
110	0xbdbd	-1.435
111	0xbb49	-0.9106
112	0xaa5e	-0.04974
113	0xb4e7	-0.3064
114	0xb013	-0.1273
115	0xb85e	-0.546
116	0xbde0	-1.469
117	0xba80	-0.8125
118	0xba5c	-0.795
119	0xbb45	-0.9087
120	0xb9c0	-0.7188
121	0xb795	-0.4739
122	0xb275	-0.2018
123	0xb651	-0.3948
124	0xb63d	-0.39
125	0xb74e	-0.4565
126	0xb422	-0.2583
127	0xb4da	-0.3032

arith.constant12 f2 [64]
0	0x4291	3.283
1	0x42db	3.428
2	0x3eb2	1.674
3	0x42af	3.342
4	0x3da9	1.415
5	0x3d5f	1.343
6	0x3eac	1.668
7	0x3d2a	1.291
8	0x4068	2.203
9	0x44a9	4.66
10	0x411d	2.557
11	0x4271	3.22
12	0x3df2	1.486
13	0x4112	2.535
14	0x4208	3.016
15	0x3d4c	1.324
16	0x3fbd	1.935
17	0x3f9c	1.902
18	0x3dd0	1.453
19	0x40bc	2.367
20	0x3d59	1.337
21	0x3e42	1.564
22	0x42b2	3.348
23	0x40db	2.428
24	0x41bc	2.867
25	0x407e	2.246
26	0x3e08	1.508
27	0x3ef0	1.734
28	0x3fcb	1.948
29	0x412d	2.588
30	0x4414	4.08
31	0x4331	3.596
32	0x4095	2.291
33	0x3e36	1.553
34	0x4139	2.611
35	0x4078	2.234
36	0x4081	2.252
37	0x3eea	1.729
38	0x4555	5.332
39	0x3f9c	1.902
40	0x3cb6	1.178
41	0x3c63	1.097
42	0x3cfa	1.244
43	0x3f58	1.836
44	0x3f98	1.898
45	0x3ee7	1.726
46	0x3e2a	1.541
47	0x3ded	1.481
48	0x45bd	5.74
49	0x3d73	1.362
50	0x3e88	1.633
51	0x3f3b	1.808
52	0x3ebc	1.684
53	0x4137	2.607
54	0x3c98	1.148
55	0x4648	6.28
56	0x3fba	1.932
57	0x3ee8	1.727
58	0x3ed3	1.706
59	0x3d87	1.382
60	0x3d52	1.33
61	0x3f37	1.804
62	0x4117	2.545
63	0x45f1	5.94

arith.constant13 f2 [64]
0	0xb95b	-0.6694
1	0xb9c9	-0.723
2	0xb62c	-0.3857
3	0xb9fc	-0.748
4	0xb8e2	-0.6104
5	0xb4ba	-0.2954
6	0xb924	-0.6426
7	0xb860	-0.547
8	0xb89f	-0.5776
9	0xb7ee	-0.4956
10	0xb852	-0.54
11	0xba1e	-0.7646
12	0xb9c6	-0.7217
13	0xb934	-0.6504
14	0xb81c	-0.5137
15	0xb62a	-0.3853
16	0xb89c	-0.576
17	0xb755	-0.4583
18	0xb7f9	-0.4983
19	0xb999	-0.6997
20	0xb884	-0.5645
21	0xb659	-0.3967
22	0xb83e	-0.5303
23	0xb907	-0.6284
24	0xb7f8	-0.498
25	0xb8cf	-0.601
26	0xb7cb	-0.487
27	0xb6ee	-0.433
28	0xb6fa	-0.436
29	0xb913	-0.6343
30	0xb854	-0.541
31	0xb8e2	-0.6104
32	0xb735	-0.4504
33	0xb71c	-0.4443
34	0xb78b	-0.4714
35	0xb834	-0.5254
36	0xb990	-0.6953
37	0xb69c	-0.413
38	0xbc23	-1.034
39	0xb8cc	-0.5996
40	0xb5dc	-0.3662
41	0xb4e4	-0.3057
42	0xb63b	-0.3894
43	0xb8f6	-0.62
44	0xb72c	-0.4482
45	0xb750	-0.457
46	0xb97c	-0.6855
47	0xb83c	-0.5293
48	0xbd06	-1.256
49	0xb7a4	-0.4775
50	0xb654	-0.3955
51	0xb8e7	-0.613
52	0xb53d	-0.3274
53	0xb9c3	-0.72
54	0xb844	-0.533
55	0xbcb3	-1.175
56	0xb85e	-0.546
57	0xb712	-0.442
58	0xb7f7	-0.4978
59	0xb8f9	-0.6216
60	0xb53d	-0.3274
61	0xb72d	-0.4485
62	0xb5e3	-0.368
63	0xbcd4	-1.207

arith.constant14 f2 [64, 128]
0	0x30ce	0.1501
1	0x30dc	0.1519
2	0xaca9	-0.0728
3	0xb475	-0.2786
4	0x3249	0.1964
5	0x22bb	0.013145
6	0xa6d0	-0.02661
7	0x2e90	0.10254
8	0xaa53	-0.0494
9	0xa5aa	-0.02213
10	0xa94d	-0.0414
11	0xa93d	-0.04092
12	0xb2e1	-0.215
13	0x9eb8	-0.00656
14	0xacf8	-0.07764
15	0xaf1e	-0.1112
16	0x1b16	0.00346
17	0xadb5	-0.0892
18	0x343b	0.2644
19	0x2e33	0.09686
20	0xacdc	-0.0759
21	0x2a9d	0.05167
22	0xaa91	-0.0513
23	0xace7	-0.0766
24	0x3065	0.1373
25	0x2f56	0.1146
26	0xb57d	-0.343
27	0xaac1	-0.05276
28	0xaa4a	-0.04913
29	0xb020	-0.1289
30	0x29c0	0.04492
31	0xa532	-0.0203
32	0xb43a	-0.2642
33	0x2f49	0.11383
34	0x31eb	0.1849
35	0x2f69	0.1158
36	0x2d5f	0.0839
37	0x31d8	0.1826
38	0xa466	-0.01718
39	0x2b94	0.0592
40	0x34eb	0.3074
41	0x2703	0.02739
42	0xad11	-0.07916
43	0xb265	-0.1998
44	0xa629	-0.02406
45	0xa6c6	-0.02646
46	0x2b81	0.05862
47	0x2a03	0.04697
48	0x2ebb	0.10516
49	0xad40	-0.08203
50	0x2d32	0.0812
51	0xaced	-0.07697
52	0x32c2	0.2112
53	0xb177	-0.1708
54	0xb23d	-0.195
55	0xb1ab	-0.1771
56	0xa220	-0.01196
57	0xb078	-0.1396
58	0xa619	-0.02382
59	0x2ca7	0.0727
60	0x3086	0.1414
61	0x3241	0.1954
62	0x318a	0.1731
63	0x31dc	0.1831
64	0xac0b	-0.0632
65	0x2cf8	0.07764
66	0x248d	0.01778
67	0x3447	0.2673
68	0x2c79	0.0699
69	0xb03d	-0.1324
70	0xa49c	-0.018
71	0x2f69	0.1158
72	0xb057	-0.1356
73	0x2fb1	0.1202
74	0xae6a	-0.1002
75	0xa7e9	-0.0309
76	0xb018	-0.1279
77	0x283a	0.03302
78	0x22b1	0.01307
79	0x2a1b	0.0477
80	0xa6e7	-0.02696
81	0x3277	0.202
82	0x2d7b	0.08563
83	0xb248	-0.1963
84	0x3216	0.1902
85	0x3430	0.2617
86	0x172f	0.001754
87	0xb0d4	-0.1509
88	0xac8d	-0.0711
89	0x2d56	0.0834
90	0xafee	-0.1239
91	0x2ea7	0.10394
92	0x2921	0.04007
93	0x9c71	-0.004337
94	0x2f16	0.1107
95	0xa9b6	-0.04462
96	0x2ffe	0.1249
97	0xb17b	-0.1713
98	0x9ee5	-0.006733
99	0x2e05	0.09406
100	0xadef	-0.0927
101	0x3467	0.2751
102	0xb3cd	-0.2438
103	0x9aea	-0.003376
104	0xac1d	-0.0643
105	0x2b7c	0.05847
106	0x1b3e	0.003536
107	0x2c4e	0.06726
108	0x30c6	0.1492
109	0xacdc	-0.0759
110	0x3585	0.345
111	0xac11	-0.06354
112	0x302a	0.1301
113	0x1a59	0.0031
114	0x28ae	0.03656
115	0xb1c8	-0.1807
116	0xad07	-0.07855
117	0x315b	0.1674
118	0xaf27	-0.11176
119	0x2d6e	0.08484
120	0xa810	-0.03174
121	0xb412	-0.2544
122	0xace0	-0.0762
123	0x35d3	0.364
124	0x2cee	0.077
125	0x3100	0.1562
126	0xb0ad	-0.1461
127	0x34cb	0.2996
128	0x2ea6	0.1039
129	0x2ffa	0.12463
130	0x329a	0.2063
131	0xad6d	-0.0848
132	0xa9f7	-0.0466
133	0xacbc	-0.074
134	0x3316	0.2214
135	0x2b67	0.05783
136	0xb03e	-0.1326
137	0xb3d2	-0.2444
138	0x2f3a	0.1129
139	0x2fc0	0.1211
140	0xa3bf	-0.01513
141	0x30b5	0.1471
142	0xac3d	-0.0662
143	0x2bda	0.06134
144	0xb07a	-0.1399
145	0xb113	-0.1586
146	0xa081	-0.0088
147	0xacfc	-0.0779
148	0x30cc	0.1499
149	0x3267	0.2001
150	0x2622	0.02396
151	0x2232	0.0121
152	0x1f8c	0.00737
153	0x2859	0.03397
154	0xb026	-0.1296
155	0xab10	-0.05518
156	0xaf4e	-0.11414
157	0xa841	-0.03323
158	0x28e0	0.0381
159	0xaf74	-0.11646
160	0xa6b4	-0.02618
161	0x324f	0.1971
162	0xafb8	-0.1206
163	0x2882	0.03522
164	0x2c88	0.0708
165	0x3026	0.1296
166	0xb1d9	-0.1827
167	0xae47	-0.0981
168	0xa8e5	-0.03824
169	0x2ba5	0.05972
170	0xad55	-0.0833
171	0xae6d	-0.1004
172	0xaff0	-0.124
173	0x2df8	0.09326
174	0x28ce	0.03754
175	0xab70	-0.0581
176	0x24d8	0.01892
177	0xa9c5	-0.04507
178	0xa7b0	-0.03003
179	0xb0a1	-0.1447
180	0xa997	-0.04367
181	0xad56	-0.0834
182	0xaafb	-0.05453
183	0xafa5	-0.11945
184	0x2b2c	0.05603
185	0x2bed	0.06192
186	0x2e62	0.09973
187	0xb13b	-0.1635
188	0x30b3	0.1469
189	0xaa61	-0.04984
190	0xae27	-0.0961
191	0xa1a7	-0.01104
192	0x29d0	0.0454
193	0xa3c9	-0.015205
194	0xb14c	-0.1655
195	0xad0a	-0.07874
196	0xb32f	-0.2245
197	0x2b9c	0.05945
198	0x303f	0.1327
199	0x30b0	0.1465
200	0x3042	0.133
201	0xb06f	-0.1385
202	0xa2b1	-0.01307
203	0xac86	-0.0707
204	0xac61	-0.0684
205	0x2a50	0.04932
206	0x2db4	0.0891
207	0xb0c2	-0.1487
208	0x1b4f	0.003569
209	0x2fa2	0.11926
210	0xb152	-0.1663
211	0xac11	-0.06354
212	0x311a	0.1594
213	0x2e5a	0.09924
214	0x273d	0.02827
215	0x2fb5	0.1204
216	0xacac	-0.073
217	0x30ae	0.1462
218	0x2b8f	0.05905
219	0x2ec1	0.1055
220	0xaf92	-0.1183
221	0x2510	0.01978
222	0xaf6a	-0.11584
223	0x3277	0.202
224	0x21db	0.01144
225	0x9dfc	-0.005844
226	0x3451	0.2698
227	0xabcb	-0.06088
228	0x2e91	0.1026
229	0x266d	0.0251
230	0x2778	0.02917
231	0x2996	0.04364
232	0xaed4	-0.1067
233	0xb215	-0.1901
234	0xa6f6	-0.02719
235	0xae7c	-0.1013
236	0x22e2	0.01344
237	0x307e	0.1404
238	0x30d2	0.1506
239	0x28e2	0.03815
240	0xaf0a	-0.11
241	0xaedc	-0.1072
242	0x2566	0.02109
243	0xb004	-0.1255
244	0x3238	0.1943
245	0x3074	0.1392
246	0xb42b	-0.2605
247	0xb275	-0.2018
248	0x2f66	0.1156
249	0xaf80	-0.1172
250	0x9ef1	-0.00678
251	0x23f2	0.01552
252	0xa451	-0.01686
253	0x2d46	0.0824
254	0xadec	-0.0925
255	0xab2c	-0.05603

arith.constant15 f2 [5, 64]
0	0x3333	0.225
1	0xabc3	-0.06064
2	0xaf0b	-0.11005
3	0xb40f	-0.2537
4	0x9aa7	-0.003248
5	0xaca2	-0.0724
6	0x2d04	0.07837
7	0xae31	-0.09674
8	0xb2e0	-0.2148
9	0x30b1	0.1466
10	0x9a48	-0.003067
11	0x2890	0.03564
12	0x2824	0.03235
13	0x2e23	0.0959
14	0x31ef	0.1854
15	0x3039	0.132
16	0x30cf	0.1503
17	0x332a	0.2239
18	0xb0a2	-0.1448
19	0x2732	0.0281
20	0x32d2	0.2131
21	0xb282	-0.2034
22	0x2461	0.0171
23	0xacbe	-0.0741
24	0xafe9	-0.1236
25	0xa8ec	-0.03845
26	0x2e08	0.09424
27	0xae49	-0.0982
28	0x28ae	0.03656
29	0xa903	-0.03915
30	0xb48c	-0.2842
31	0x31f3	0.1859
32	0xb143	-0.1644
33	0xa209	-0.01179
34	0x2d64	0.0842
35	0x2954	0.04163
36	0xaf08	-0.10986
37	0x28a7	0.03635
38	0x30a6	0.1453
39	0x2f15	0.11066
40	0xb035	-0.1315
41	0x3084	0.1411
42	0x2dbd	0.08966
43	0x2e41	0.0977
44	0x2f1c	0.1111
45	0xb0af	-0.1464
46	0x2fc0	0.1211
47	0xa983	-0.04306
48	0x3039	0.132
49	0xb450	-0.2695
50	0xb4be	-0.2964
51	0xb52b	-0.323
52	0x2584	0.02155
53	0x1d0e	0.004936
54	0x2f4c	0.114
55	0x249b	0.01799
56	0xb05b	-0.1361
57	0x30b8	0.1475
58	0x2a8d	0.05118
59	0xb13e	-0.1638
60	0xacb1	-0.0733
61	0x23f9	0.01557
62	0x2da0	0.0879
63	0xae69	-0.10016
64	0x34c0	0.2969
65	0xadfe	-0.0936
66	0x2991	0.0435
67	0xaf9b	-0.11884
68	0x26b8	0.02625
69	0xaedb	-0.1071
70	0x2cbb	0.0739
71	0xb0df	-0.1522
72	0xb1c0	-0.1797
73	0xae2e	-0.09656
74	0xabd7	-0.06125
75	0x304b	0.1342
76	0xab80	-0.0586
77	0x20e4	0.00955
78	0x34e0	0.3047
79	0x2987	0.04318
80	0x30fa	0.1555
81	0x30cb	0.1498
82	0xaa89	-0.05106
83	0x2f51	0.1143
84	0xa49a	-0.01797
85	0xac87	-0.07074
86	0xad51	-0.08307
87	0x2bc2	0.0606
88	0xb1d9	-0.1827
89	0xa90f	-0.03952
90	0xb180	-0.1719
91	0xae0b	-0.0944
92	0x266c	0.02509
93	0xb0fa	-0.1555
94	0xad8c	-0.0867
95	0xaeee	-0.1083
96	0xa9f8	-0.04663
97	0x29e6	0.04608
98	0x3080	0.1406
99	0x25f8	0.02332
100	0xb081	-0.1407
101	0x2e3b	0.09735
102	0x29a8	0.0442
103	0x28ea	0.0384
104	0x2afa	0.0545
105	0x3261	0.1993
106	0x2dff	0.0937
107	0x29be	0.04486
108	0x32b9	0.2101
109	0x2d5d	0.0838
110	0x306b	0.1381
111	0x2bda	0.06134
112	0x1e55	0.006184
113	0x2ad1	0.05325
114	0xaa36	-0.04852
115	0xad13	-0.0793
116	0xac89	-0.07086
117	0xaf5e	-0.1151
118	0x2d6d	0.0848
119	0x29dd	0.0458
120	0x2fb7	0.12054
121	0x331d	0.2223
122	0xaa9e	-0.0517
123	0xaf6e	-0.1161
124	0xac77	-0.06976
125	0xaa0b	-0.0472
126	0x30d0	0.1504
127	0xab8d	-0.059
128	0x2c33	0.0656
129	0xb1d0	-0.1816
130	0x1e70	0.006287
131	0x2928	0.04028
132	0xad52	-0.0831
133	0xb30b	-0.2201
134	0xaa11	-0.0474
135	0x31ab	0.1771
136	0xac92	-0.0714
137	0x1cb5	0.004597
138	0xa664	-0.02496
139	0x31f1	0.1857
140	0x2b6b	0.05795
141	0xa5f8	-0.02332
142	0x3251	0.1974
143	0x2f3e	0.11316
144	0x2fd4	0.1223
145	0xb175	-0.1705
146	0xa815	-0.0319
147	0x3084	0.1411
148	0xb19c	-0.1753
149	0xaf57	-0.1147
150	0x2ef8	0.1089
151	0x185b	0.002127
152	0xa1ef	-0.01159
153	0x21f8	0.01166
154	0xa88a	-0.03546
155	0xb172	-0.1702
156	0x2ca5	0.0726
157	0xafa2	-0.11926
158	0x3100	0.1562
159	0xae5b	-0.0993
160	0x9bd9	-0.003832
161	0x2822	0.0323
162	0xada9	-0.08844
163	0x33b0	0.2402
164	0xafb2	-0.12024
165	0x2e0d	0.09454
166	0x2da3	0.0881
167	0x2ca5	0.0726
168	0x2b1f	0.05563
169	0x1a46	0.003063
170	0x2c06	0.06287
171	0xafd0	-0.1221
172	0x340e	0.2534
173	0x321d	0.191
174	0x3039	0.132
175	0xa936	-0.0407
176	0xad72	-0.0851
177	0x3344	0.227
178	0xa2d5	-0.01334
179	0x32af	0.2089
180	0x31c3	0.18
181	0xae2e	-0.09656
182	0x3113	0.1586
183	0x306b	0.1381
184	0x2fc5	0.1214
185	0x29e9	0.04617
186	0x26ea	0.02701
187	0xb053	-0.1351
188	0x2cac	0.073
189	0x2ae1	0.05374
190	0x2dd7	0.09125
191	0xab52	-0.0572
192	0xb38c	-0.2358
193	0xb47a	-0.2798
194	0x302e	0.1306
195	0xa608	-0.02356
196	0x2f57	0.1147
197	0xb148	-0.165
198	0xb2c3	-0.2113
199	0x3320	0.2227
200	0xad93	-0.0871
201	0xa8b4	-0.03674
202	0xa645	-0.02449
203	0xaf1e	-0.1112
204	0xae50	-0.09863
205	0x2d0b	0.0788
206	0x2cd6	0.07556
207	0xa3dd	-0.01536
208	0x30f0	0.1543
209	0xb853	-0.5405
210	0xade2	-0.0919
211	0xb1e2	-0.1838
212	0xb1d0	-0.1816
213	0xb0be	-0.1482
214	0x3096	0.1433
215	0x9ab7	-0.003279
216	0x26dd	0.02681
217	0xb468	-0.2754
218	0x2b7a	0.0584
219	0xafd8	-0.12256
220	0x08a1	0.0001413
221	0x9e9e	-0.006462
222	0x33b8	0.2412
223	0x1ef5	0.006794
224	0xb363	-0.2308
225	0x27ee	0.03098
226	0xb322	-0.2229
227	0x3322	0.2229
228	0xaecc	-0.1062
229	0xb430	-0.2617
230	0xb308	-0.2197
231	0x2e8a	0.1022
232	0xb2a1	-0.2072
233	0x2e8c	0.1023
234	0xa3c9	-0.015205
235	0xa820	-0.03223
236	0x33f2	0.2483
237	0xb129	-0.1613
238	0x2756	0.02866
239	0xb4fd	-0.3118
240	0x3173	0.1703
241	0x31f0	0.1855
242	0xaf1d	-0.11115
243	0x229f	0.01293
244	0x325b	0.1986
245	0x2c04	0.06274
246	0x327c	0.2026
247	0xa89f	-0.0361
248	0x2e96	0.1029
249	0xb1ef	-0.1854
250	0x288c	0.03552
251	0xb009	-0.1261
252	0x2c24	0.0647
253	0x2004	0.00784
254	0xb00f	-0.1268
255	0xacfe	-0.078

arith.constant16 f2 [64, 1, 50, 1]
0	0xb02b	-0.1302
1	0xb24f	-0.1971
2	0xa98e	-0.0434
3	0x9ca1	-0.00452
4	0xa65e	-0.02487
5	0x1d15	0.004963
6	0xa52e	-0.02023
7	0xaf76	-0.1166
8	0x281e	0.03217
9	0x2f29	0.1119
10	0x28d2	0.03766
11	0x2ada	0.05353
12	0xaf77	-0.11664
13	0xabfd	-0.0624
14	0x2e72	0.1007
15	0x9eb3	-0.006542
16	0x2ec7	0.1059
17	0x2016	0.00798
18	0xaea3	-0.1037
19	0x2530	0.02026
20	0x2b8a	0.0589
21	0x24ee	0.01926
22	0x9dec	-0.005783
23	0xabbe	-0.0605
24	0xa2a4	-0.01297
25	0x9aba	-0.003284
26	0xafeb	-0.1237
27	0x2c2d	0.06525
28	0x2156	0.01042
29	0xb01d	-0.1285
30	0x259e	0.02194
31	0x282a	0.03253
32	0xad50	-0.083
33	0x2630	0.02417
34	0x2682	0.02542
35	0x2558	0.02087
36	0xa4f1	-0.0193
37	0x1870	0.002167
38	0xaa3e	-0.04877
39	0x156f	0.001327
40	0x9873	-0.002172
41	0x2c3f	0.06635
42	0x271c	0.02777
43	0xad96	-0.0873
44	0xad4c	-0.08276
45	0x273c	0.02826
46	0xa260	-0.01245
47	0xa2f5	-0.01359
48	0x21e7	0.01153
49	0xaffb	-0.1247
50	0x27bd	0.03023
51	0xb0cc	-0.1499
52	0xa6ab	-0.02605
53	0xa799	-0.02968
54	0xab72	-0.05817
55	0x2df3	0.09296
56	0xab2d	-0.05606
57	0xb0ae	-0.1462
58	0x2353	0.014305
59	0xaa9f	-0.05173
60	0xa5ea	-0.0231
61	0x2c38	0.0659
62	0xae7e	-0.10144
63	0xb12c	-0.1616
64	0x1dcf	0.005672
65	0xa369	-0.01447
66	0x2500	0.01953
67	0x2c28	0.06494
68	0xa9d1	-0.04544
69	0xae5e	-0.0995
70	0x2366	0.01445
71	0x2ccc	0.07495
72	0xa33c	-0.01413
73	0x2b7d	0.0585
74	0xa54b	-0.02068
75	0xae1a	-0.09534
76	0x2a16	0.04755
77	0x2331	0.014046
78	0x2edd	0.10724
79	0x2e11	0.0948
80	0xaf86	-0.11755
81	0x287e	0.0351
82	0xa388	-0.01471
83	0x2720	0.02783
84	0x315f	0.1678
85	0xafb0	-0.1201
86	0xae8a	-0.1022
87	0x285e	0.03412
88	0xa4f0	-0.01929
89	0x2ccd	0.075
90	0x2ac4	0.05286
91	0xaf6d	-0.116
92	0x9a69	-0.00313
93	0xa7f5	-0.03108
94	0x150f	0.001235
95	0x2b57	0.05734
96	0xb0ac	-0.146
97	0xaa67	-0.05002
98	0x2917	0.03976
99	0xb019	-0.128
100	0xac35	-0.06573
101	0x2056	0.00847
102	0x2b7e	0.05853
103	0x965c	-0.001553
104	0x28e4	0.0382
105	0x2b75	0.05826
106	0x2e81	0.1016
107	0x2f62	0.11536
108	0x26fb	0.02727
109	0x2ca9	0.0728
110	0xa0cf	-0.00939
111	0x26fa	0.02725
112	0x29c0	0.04492
113	0xa336	-0.014084
114	0x9cbf	-0.004635
115	0xaa4a	-0.04913
116	0xa90a	-0.03937
117	0x1b14	0.003456
118	0xae08	-0.09424
119	0xac01	-0.06256
120	0xaede	-0.1073
121	0xa807	-0.03146
122	0x9c7f	-0.00439
123	0xae15	-0.09503
124	0xa0d5	-0.00944
125	0x2a75	0.05045
126	0x28e0	0.0381
127	0x211e	0.009995
128	0x2c1f	0.0644
129	0x318e	0.1736
130	0x30ce	0.1501
131	0x2f2f	0.11224
132	0x321e	0.1912
133	0x2f8a	0.1178
134	0x31b5	0.1783
135	0x9f9e	-0.00744
136	0x16c4	0.001652
137	0x2d19	0.07965
138	0xa08f	-0.0089
139	0xa035	-0.00822
140	0xab04	-0.0548
141	0xad89	-0.0865
142	0xac23	-0.06464
143	0xafb9	-0.12067
144	0xacee	-0.077
145	0xaff2	-0.12415
146	0xac24	-0.0647
147	0xa97a	-0.0428
148	0xae2d	-0.0965
149	0xa94a	-0.04132
150	0xaa05	-0.04703
151	0xa5c5	-0.02254
152	0xacce	-0.0751
153	0x2948	0.04126
154	0x23f3	0.015526
155	0xabf6	-0.0622
156	0x2a45	0.04898
157	0x2967	0.0422
158	0x2d89	0.0865
159	0x2462	0.01712
160	0x2167	0.01055
161	0x28c6	0.0373
162	0x21f2	0.01161
163	0x2545	0.02058
164	0x96bc	-0.001644
165	0xa73a	-0.02823
166	0x2003	0.007835
167	0xa94b	-0.04135
168	0xaa44	-0.04895
169	0x29be	0.04486
170	0xa3fd	-0.0156
171	0xa5ba	-0.02237
172	0xaf23	-0.1115
173	0xa45b	-0.01701
174	0x9c57	-0.00424
175	0x25d3	0.02275
176	0xa0ca	-0.00935
177	0xad7d	-0.08575
178	0x27a1	0.0298
179	0x2c76	0.0697
180	0x28ff	0.03903
181	0x2d1a	0.0797
182	0x2774	0.02911
183	0xac47	-0.06683
184	0x9d24	-0.00502
185	0x2e20	0.0957
186	0x2ef2	0.1085
187	0xb011	-0.1271
188	0xb1cd	-0.1813
189	0x295f	0.04196
190	0x2f87	0.1176
191	0x2688	0.02551
192	0xb29b	-0.2064
193	0xab81	-0.05862
194	0x26e0	0.02686
195	0x2c21	0.0645
196	0xa425	-0.01619
197	0xac11	-0.06354
198	0xab06	-0.05487
199	0x2e2d	0.0965
200	0xb048	-0.1338
201	0xae7a	-0.1012
202	0xa7f4	-0.03107
203	0xb169	-0.1691
204	0xab2c	-0.05603
205	0xab25	-0.05582
206	0xaf86	-0.11755
207	0xa60a	-0.02359
208	0xa8f4	-0.0387
209	0xaae1	-0.05374
210	0xac78	-0.0698
211	0xab8a	-0.0589
212	0xac37	-0.06586
213	0xaf90	-0.11816
214	0xa8f5	-0.03873
215	0x2ab1	0.05228
216	0xa48b	-0.01775
217	0x278d	0.0295
218	0x2de1	0.09186
219	0x25e6	0.02304
220	0x9d06	-0.004906
221	0xa419	-0.016
222	0x1ff6	0.007774
223	0x2f12	0.1105
224	0x2e87	0.102
225	0x3156	0.1667
226	0x2e1e	0.0956
227	0xa929	-0.0403
228	0x3022	0.1292
229	0x20e2	0.00954
230	0xae0a	-0.09436
231	0xa259	-0.0124
232	0xa422	-0.01614
233	0xa731	-0.02809
234	0x293d	0.04092
235	0x257e	0.02145
236	0x9d09	-0.004917
237	0xa870	-0.03467
238	0x206c	0.00864
239	0xa7c6	-0.03036
240	0x9e08	-0.00589
241	0x2730	0.02808
242	0x2aa4	0.05188
243	0xa4b9	-0.01845
244	0x2abb	0.05258
245	0x30c4	0.1489
246	0x2b22	0.05573
247	0x2eb9	0.10504
248	0x312a	0.1614
249	0x2c47	0.06683
250	0x3087	0.1415
251	0x30c9	0.1495
252	0x29a0	0.04395
253	0x2e57	0.09906
254	0x9a4c	-0.003075
255	0x1a36	0.003033

arith.constant17 f2 [128, 1, 12, 64]
0	0x249f	0.01805
1	0x2c86	0.0707
2	0x2aed	0.0541
3	0x2e8a	0.1022
4	0xad68	-0.0845
5	0x094e	0.0001619
6	0x20ba	0.00923
7	0x2164	0.01053
8	0xa028	-0.00812
9	0x254a	0.02066
10	0x2af4	0.05432
11	0x2c3b	0.0661
12	0xa353	-0.014305
13	0x2f66	0.1156
14	0xa05d	-0.00852
15	0x2e43	0.09784
16	0x31af	0.1776
17	0x2ded	0.0926
18	0x312d	0.1617
19	0x26f9	0.02724
20	0x1c61	0.004276
21	0x3004	0.1255
22	0xa93e	-0.04095
23	0x2acf	0.0532
24	0xa813	-0.03183
25	0x2c61	0.0684
26	0x2913	0.03964
27	0xa83c	-0.03308
28	0x2f14	0.1106
29	0x25b6	0.02231
30	0xac52	-0.0675
31	0x2365	0.01444
32	0xa8ca	-0.0374
33	0x290c	0.03943
34	0x2afa	0.0545
35	0x2e62	0.09973
36	0x28ce	0.03754
37	0x2686	0.02548
38	0x2d7d	0.08575
39	0x2958	0.04175
40	0x2c16	0.06384
41	0x2dd9	0.0914
42	0xae1d	-0.0955
43	0x30be	0.1482
44	0xa384	-0.01468
45	0x30c8	0.1494
46	0x2c6c	0.0691
47	0x2b63	0.0577
48	0x2c02	0.0626
49	0x1df9	0.005833
50	0x2bf6	0.0622
51	0x2755	0.02864
52	0x2826	0.0324
53	0x3143	0.1644
54	0x2c94	0.07153
55	0xa4b4	-0.01837
56	0xadb5	-0.0892
57	0xac7d	-0.0701
58	0x30fd	0.1559
59	0x0b49	0.0002223
60	0x29af	0.0444
61	0x2e45	0.09796
62	0x9c6e	-0.004326
63	0x2509	0.01967
64	0x2128	0.01007
65	0x8637	-9.483e-05
66	0xa571	-0.02126
67	0x2fbc	0.12085
68	0x250a	0.01968
69	0x2b75	0.05826
70	0x2158	0.01044
71	0x2e07	0.0942
72	0x266a	0.02505
73	0xa794	-0.0296
74	0x2202	0.011734
75	0x2429	0.01625
76	0x2814	0.03186
77	0x2c7d	0.0701
78	0xa200	-0.01172
79	0x2ec6	0.10583
80	0x308a	0.1418
81	0x256a	0.02115
82	0x275d	0.02876
83	0x2d63	0.08417
84	0x9a2a	-0.00301
85	0x2de3	0.092
86	0x28e5	0.03824
87	0x25ac	0.02216
88	0xa4fa	-0.01944
89	0x2f41	0.11334
90	0x291f	0.04
91	0xabd5	-0.0612
92	0x303c	0.1323
93	0x2949	0.0413
94	0xa513	-0.01982
95	0x2cb6	0.0736
96	0x9d56	-0.00521
97	0x3039	0.132
98	0x2571	0.02126
99	0x2475	0.01741
100	0x2e8e	0.1024
101	0x29a1	0.04398
102	0x285f	0.03415
103	0x2c9e	0.07214
104	0x28ff	0.03903
105	0x2e4d	0.09845
106	0xa84e	-0.03363
107	0x3133	0.1625
108	0xa11d	-0.00999
109	0x30ca	0.1497
110	0x2d97	0.08734
111	0x2730	0.02808
112	0x2a58	0.04956
113	0xa6b5	-0.0262
114	0xa231	-0.01209
115	0x20e8	0.00958
116	0x24cb	0.01872
117	0x2f6b	0.1159
118	0x301c	0.1284
119	0xa67a	-0.0253
120	0x26e6	0.02695
121	0xaab0	-0.05225
122	0x2f9a	0.1188
123	0x2b53	0.05722
124	0x2df8	0.09326
125	0x2930	0.04053
126	0xa932	-0.0406
127	0x2017	0.00799
128	0x1c9c	0.0045
129	0x2cd3	0.0754
130	0xa5c3	-0.0225
131	0x2925	0.0402
132	0x2381	0.014656
133	0x2c74	0.0696
134	0x2d5a	0.0836
135	0x2cee	0.077
136	0x2891	0.03568
137	0x2826	0.0324
138	0xa8c4	-0.03723
139	0x2774	0.02911
140	0x2b55	0.05728
141	0x2594	0.02179
142	0xa406	-0.01572
143	0xa0a5	-0.00907
144	0x2f43	0.11346
145	0xa618	-0.0238
146	0x2b09	0.05496
147	0x2f0b	0.11005
148	0x2ada	0.05353
149	0x26c5	0.02644
150	0x2695	0.02571
151	0x9d26	-0.005028
152	0xab8e	-0.05902
153	0x2016	0.00798
154	0x2ca9	0.0728
155	0xa2b7	-0.013115
156	0xa9c9	-0.0452
157	0x2981	0.043
158	0xa59d	-0.02193
159	0x2c4d	0.0672
160	0x2798	0.02966
161	0x300f	0.1268
162	0xa575	-0.02132
163	0x2a00	0.04688
164	0x2d3c	0.0818
165	0x2b0a	0.055
166	0x217c	0.01071
167	0x2e26	0.09607
168	0x2885	0.0353
169	0x2a2d	0.04825
170	0x2e34	0.0969
171	0x3004	0.1255
172	0x2c5c	0.0681
173	0x2a8d	0.05118
174	0x3126	0.1609
175	0x2711	0.0276
176	0x1f1b	0.00694
177	0x29d0	0.0454
178	0x15d4	0.001423
179	0x2e96	0.1029
180	0xa906	-0.03925
181	0x2cd9	0.07574
182	0x304f	0.1346
183	0x287f	0.03513
184	0xa690	-0.02563
185	0x26a9	0.02602
186	0xa63a	-0.02432
187	0x2f8b	0.11786
188	0x3256	0.198
189	0xa90c	-0.03943
190	0xa946	-0.0412
191	0x283c	0.03308
192	0x2c42	0.0665
193	0x2d56	0.0834
194	0x2776	0.02914
195	0x1b71	0.003633
196	0x2f20	0.1113
197	0x2c4a	0.067
198	0x22d6	0.01335
199	0x2c53	0.06757
200	0x27ae	0.03
201	0xa48a	-0.01773
202	0xaa7e	-0.05072
203	0xa576	-0.02133
204	0x2e33	0.09686
205	0x2bbe	0.0605
206	0x23af	0.01501
207	0x2a2a	0.04816
208	0x9792	-0.001848
209	0x2ab1	0.05228
210	0x2b3d	0.05655
211	0x2e81	0.1016
212	0x30c0	0.1484
213	0xa176	-0.010666
214	0x2b32	0.0562
215	0xa949	-0.0413
216	0xa97e	-0.0429
217	0x2c20	0.06445
218	0x2aac	0.05212
219	0x2ae7	0.05392
220	0xac69	-0.0689
221	0x2eae	0.1044
222	0x2d0b	0.0788
223	0x2869	0.03445
224	0x1d67	0.005276
225	0xa1df	-0.01147
226	0xab9f	-0.05954
227	0x2bfd	0.0624
228	0x2c33	0.0656
229	0x2f62	0.11536
230	0x272e	0.02805
231	0x2db2	0.089
232	0x225c	0.01242
233	0x2cb5	0.07355
234	0x2c4e	0.06726
235	0x2aaa	0.05206
236	0x2b1c	0.05554
237	0x28d1	0.03763
238	0x304b	0.1342
239	0xa4f3	-0.01933
240	0x2cc3	0.0744
241	0x2d85	0.08624
242	0x2953	0.0416
243	0x2cd2	0.0753
244	0x28a2	0.0362
245	0x263c	0.02435
246	0x2f37	0.11273
247	0x2cc7	0.07465
248	0xa425	-0.01619
249	0x95e8	-0.001442
250	0x2aac	0.05212
251	0x2c1c	0.0642
252	0x2b27	0.05588
253	0xa74e	-0.02853
254	0xa92d	-0.04044
255	0x2728	0.02795

arith.constant25 f2 [5]
0	0xa880	-0.03516
1	0x2e51	0.0987
2	0x1ca3	0.004528
3	0x24e6	0.01913
4	0xb082	-0.1409

arith.constant26 f2 [64]
0	0x2f70	0.1162
1	0x2ec9	0.106
2	0xad28	-0.08057
3	0x331d	0.2223
4	0xac46	-0.0668
5	0x3133	0.1625
6	0xac78	-0.0698
7	0xb1a0	-0.1758
8	0x293f	0.041
9	0x22fb	0.01363
10	0x30d4	0.1509
11	0x32cf	0.2128
12	0xa8f0	-0.03857
13	0x315d	0.1676
14	0x25b0	0.02222
15	0x9fe4	-0.007706
16	0xa33a	-0.014114
17	0x2f2f	0.11224
18	0xac8f	-0.0712
19	0x28bb	0.03696
20	0xa2d7	-0.01336
21	0xaaf6	-0.05438
22	0x299e	0.04388
23	0x3219	0.1906
24	0x2bc2	0.0606
25	0x2de2	0.0919
26	0xb0a3	-0.1449
27	0x2fee	0.1239
28	0xac85	-0.0706
29	0x3134	0.1626
30	0x2b8c	0.05896
31	0x2af9	0.05447
32	0xa941	-0.04105
33	0xa917	-0.03976
34	0x2c6b	0.06903
35	0x28fb	0.0389
36	0xaa44	-0.04895
37	0x2d41	0.0821
38	0x3145	0.1647
39	0xac1e	-0.06433
40	0x2aaa	0.05206
41	0x2b5c	0.0575
42	0x2aac	0.05212
43	0xa9a4	-0.04407
44	0x2d36	0.0814
45	0xb043	-0.1332
46	0xac98	-0.0718
47	0xb04c	-0.1343
48	0x32f6	0.2175
49	0xa702	-0.02737
50	0x2c48	0.0669
51	0xa007	-0.007866
52	0xaa0a	-0.04718
53	0x250d	0.01973
54	0xad83	-0.0861
55	0x3177	0.1708
56	0x2228	0.012024
57	0x2f82	0.1173
58	0xadaa	-0.0885
59	0xab6f	-0.05807
60	0x304d	0.1344
61	0xad4f	-0.08295
62	0xaaaa	-0.05206
63	0x3230	0.1934

arith.constant27 f2 [128]
0	0xadcb	-0.0905
1	0xac72	-0.06946
2	0x23de	0.015366
3	0xa8b6	-0.0368
4	0xa93c	-0.0409
5	0xad32	-0.0812
6	0xa614	-0.02374
7	0x24a5	0.01814
8	0x2980	0.04297
9	0xae2e	-0.09656
10	0xaccf	-0.07513
11	0xb141	-0.1642
12	0xaa6f	-0.05026
13	0xad79	-0.0855
14	0xad7c	-0.0857
15	0xb1e5	-0.1842
16	0x2f00	0.1094
17	0xa7e5	-0.03084
18	0xa917	-0.03976
19	0x18bb	0.00231
20	0xb473	-0.278
21	0xabd2	-0.0611
22	0x2e61	0.0997
23	0xafc0	-0.1211
24	0xa8cd	-0.0375
25	0xaa69	-0.05008
26	0xb515	-0.3176
27	0xa5e5	-0.02303
28	0xb2b0	-0.209
29	0xa422	-0.01614
30	0x3039	0.132
31	0x2f7d	0.117
32	0x932c	-0.0008755
33	0x2881	0.0352
34	0xae6e	-0.10046
35	0xa951	-0.04153
36	0x207a	0.00874
37	0xa98e	-0.0434
38	0xa5f0	-0.0232
39	0x2c08	0.063
40	0xac18	-0.06396
41	0xad51	-0.08307
42	0xb36f	-0.2323
43	0x2d86	0.0863
44	0xa40d	-0.01582
45	0xa9ef	-0.04636
46	0x9cdc	-0.004745
47	0xb46d	-0.2766
48	0x2718	0.02771
49	0xad14	-0.07935
50	0xae95	-0.10284
51	0xa8c1	-0.03714
52	0xae97	-0.10297
53	0x30b2	0.1467
54	0xb0a3	-0.1449
55	0x918f	-0.0006785
56	0x1955	0.002604
57	0xaccf	-0.07513
58	0x1cc1	0.004642
59	0xaddd	-0.0916
60	0xb045	-0.1334
61	0xa701	-0.02736
62	0x2a04	0.047
63	0xa43d	-0.01656
64	0xaf75	-0.1165
65	0xad73	-0.08514
66	0xae4f	-0.0986
67	0xb0cc	-0.1499
68	0x2b80	0.0586
69	0xa067	-0.0086
70	0x1dd5	0.005695
71	0xa8cd	-0.0375
72	0x31c8	0.1807
73	0xb061	-0.1368
74	0xb11b	-0.1595
75	0x910e	-0.000617
76	0x2c29	0.065
77	0xac3a	-0.06604
78	0xa664	-0.02496
79	0x2ec6	0.10583
80	0xb08d	-0.1422
81	0xac65	-0.06866
82	0xae98	-0.103
83	0xa0de	-0.00951
84	0xa86e	-0.0346
85	0xa951	-0.04153
86	0x2927	0.04025
87	0xae4e	-0.0985
88	0x9ef6	-0.006798
89	0xace1	-0.07623
90	0xa158	-0.01044
91	0xaa9f	-0.05173
92	0xaf20	-0.1113
93	0xae6a	-0.1002
94	0xad50	-0.083
95	0xaf4d	-0.1141
96	0x2ce9	0.0767
97	0xac4a	-0.067
98	0xa62d	-0.02412
99	0xae33	-0.09686
100	0xb19f	-0.1757
101	0xaca3	-0.07245
102	0xada4	-0.08813
103	0xadc4	-0.0901
104	0xab97	-0.0593
105	0xad84	-0.0862
106	0xa8b5	-0.03677
107	0xa9d3	-0.0455
108	0xae42	-0.0978
109	0x2d05	0.0784
110	0xa761	-0.02882
111	0xa478	-0.01746
112	0xaf7e	-0.11707
113	0xafed	-0.12384
114	0xb0a3	-0.1449
115	0xa2c1	-0.01319
116	0xa20b	-0.0118
117	0xa7c9	-0.03041
118	0xa80e	-0.03168
119	0xaa73	-0.05038
120	0x27b3	0.03008
121	0x30aa	0.1458
122	0xa812	-0.0318
123	0x2371	0.014534
124	0x210f	0.00988
125	0x27da	0.03067
126	0xac58	-0.0679
127	0xaa03	-0.04697

arith.constant28 f2 [64]
0	0x2edc	0.1072
1	0x25c3	0.0225
2	0x2ebb	0.10516
3	0x22b8	0.01312
4	0x2b4f	0.0571
5	0xb171	-0.17
6	0xadde	-0.0917
7	0x30f6	0.155
8	0xb24f	-0.1971
9	0xaebe	-0.10535
10	0xaf3d	-0.1131
11	0xb08f	-0.1425
12	0xb039	-0.132
13	0x2ba4	0.0597
14	0x2f75	0.1165
15	0xb1fa	-0.1868
16	0xa44c	-0.01678
17	0x2de7	0.0922
18	0xae91	-0.1026
19	0xaf5c	-0.115
20	0xaa84	-0.0509
21	0xad58	-0.0835
22	0xad25	-0.0804
23	0xb04d	-0.1344
24	0x2299	0.012886
25	0xa7a3	-0.02983
26	0xaecf	-0.1064
27	0xafaa	-0.11975
28	0xb021	-0.129
29	0xb09e	-0.1443
30	0x2f81	0.11725
31	0x2ec0	0.10547
32	0xa9a7	-0.04416
33	0xaaa1	-0.0518
34	0x2dd8	0.0913
35	0xa035	-0.00822
36	0xad94	-0.08716
37	0x2eef	0.10834
38	0x1ae3	0.003363
39	0xa940	-0.04102
40	0x290a	0.03937
41	0xb08c	-0.1421
42	0xaffa	-0.12463
43	0xada6	-0.08826
44	0xaa46	-0.049
45	0xa431	-0.01637
46	0xaf60	-0.11523
47	0x270d	0.02754
48	0x2968	0.04224
49	0x2f7a	0.1168
50	0xa5d5	-0.02278
51	0x2df1	0.09283
52	0xa848	-0.03345
53	0xb2b0	-0.209
54	0xae4a	-0.09827
55	0xb368	-0.2314
56	0x9a5c	-0.003105
57	0x9fcf	-0.007626
58	0xafdb	-0.12274
59	0xb001	-0.1251
60	0xa5e3	-0.023
61	0xb033	-0.1312
62	0x2cc8	0.0747
63	0xb10e	-0.158

arith.constant32 f2 [512]
0	0xaf70	-0.1162
1	0xb094	-0.1431
2	0xad5d	-0.0838
3	0x234a	0.01424
4	0xb2c7	-0.2118
5	0xb107	-0.1571
6	0xaef0	-0.1084
7	0xb481	-0.2815
8	0xa440	-0.0166
9	0xac5e	-0.06824
10	0xb26d	-0.2008
11	0x2135	0.01017
12	0xb058	-0.1357
13	0xab1e	-0.0556
14	0xabb8	-0.0603
15	0x2c60	0.06836
16	0x2d43	0.0822
17	0xacb0	-0.07324
18	0xb10e	-0.158
19	0xaeb7	-0.1049
20	0xa870	-0.03467
21	0xacd9	-0.07574
22	0xae3c	-0.0974
23	0xb163	-0.1683
24	0xaab7	-0.05246
25	0xa459	-0.01698
26	0xac93	-0.0715
27	0xb0a6	-0.1453
28	0x1c14	0.003983
29	0xaf1d	-0.11115
30	0xab7c	-0.05847
31	0x284c	0.03357
32	0x1952	0.002598
33	0xb06d	-0.1383
34	0xb335	-0.2252
35	0x2ac0	0.05273
36	0xb4ae	-0.2925
37	0xb342	-0.2268
38	0xaad2	-0.05328
39	0xb149	-0.1652
40	0x2a01	0.0469
41	0xadfa	-0.0934
42	0xacc9	-0.07477
43	0xa919	-0.03983
44	0xa896	-0.03583
45	0xabb4	-0.06018
46	0xa75a	-0.02872
47	0xad5a	-0.0836
48	0xabc9	-0.06082
49	0xa5a1	-0.02199
50	0xa8c8	-0.03735
51	0x165d	0.001554
52	0xa7de	-0.03073
53	0x29e4	0.04602
54	0x1fd7	0.007656
55	0xb069	-0.1378
56	0x288a	0.03546
57	0xb3e8	-0.2471
58	0xb21b	-0.1908
59	0xad7b	-0.08563
60	0xae4f	-0.0986
61	0x2b6f	0.05807
62	0xadc6	-0.0902
63	0xaf75	-0.1165
64	0x2c0b	0.0632
65	0xa7d2	-0.03055
66	0xaffa	-0.12463
67	0xa248	-0.01227
68	0x9bd6	-0.003826
69	0xaade	-0.05365
70	0x2d02	0.07825
71	0xae82	-0.1017
72	0x22ad	0.01304
73	0x9f3b	-0.00706
74	0xaa47	-0.04904
75	0xb232	-0.1936
76	0x9f1f	-0.006954
77	0xb326	-0.2234
78	0xb027	-0.1298
79	0xaa4a	-0.04913
80	0xadbd	-0.08966
81	0xb13e	-0.1638
82	0x2dba	0.0895
83	0xb1d1	-0.1818
84	0xb13e	-0.1638
85	0xae8b	-0.10223
86	0xa3b7	-0.01507
87	0xa433	-0.0164
88	0xa5d5	-0.02278
89	0xb3be	-0.242
90	0xa5b9	-0.02235
91	0xad1f	-0.08
92	0xa91e	-0.03998
93	0x298d	0.04337
94	0x2cc5	0.0745
95	0xb52e	-0.3237
96	0xa6b5	-0.0262
97	0x1a4c	0.003075
98	0xa656	-0.02475
99	0xaae8	-0.05396
100	0xa8fd	-0.03897
101	0xb058	-0.1357
102	0xafcd	-0.1219
103	0xa66a	-0.02505
104	0x2d10	0.0791
105	0xb07d	-0.1403
106	0xb01d	-0.1285
107	0xafa7	-0.11957
108	0xa42d	-0.01631
109	0xafcd	-0.1219
110	0xb027	-0.1298
111	0xafa5	-0.11945
112	0x28f9	0.03885
113	0x2318	0.013855
114	0xab46	-0.05682
115	0xa836	-0.0329
116	0xa7e7	-0.03087
117	0xa265	-0.01249
118	0xb15f	-0.1678
119	0xaafc	-0.05457
120	0xb00c	-0.1265
121	0xa59e	-0.02194
122	0x28da	0.0379
123	0xac2e	-0.0653
124	0x19ea	0.002888
125	0xb07b	-0.14
126	0x2166	0.010544
127	0xac07	-0.0629
128	0x3c33	1.05
129	0x3c52	1.08
130	0x3bb9	0.9653
131	0x3caf	1.171
132	0x3c2a	1.041
133	0x3c5b	1.089
134	0x3c19	1.024
135	0x3cce	1.201
136	0x3c1c	1.027
137	0x3c37	1.054
138	0x3c62	1.096
139	0x3c4e	1.076
140	0x3c26	1.037
141	0x3cb9	1.181
142	0x3c46	1.068
143	0x3cdb	1.214
144	0x3c9c	1.152
145	0x3c5d	1.091
146	0x3c6f	1.108
147	0x3c77	1.116
148	0x3c69	1.103
149	0x3c23	1.034
150	0x3c3c	1.059
151	0x3c4b	1.073
152	0x3ba6	0.956
153	0x3c27	1.038
154	0x3b4b	0.9116
155	0x3c28	1.039
156	0x3c84	1.129
157	0x3c63	1.097
158	0x3c43	1.065
159	0x3c5d	1.091
160	0x3cb0	1.172
161	0x3c4b	1.073
162	0x3c6f	1.108
163	0x3c3c	1.059
164	0x3cb6	1.178
165	0x3c6f	1.108
166	0x3c79	1.118
167	0x3c52	1.08
168	0x3bde	0.9834
169	0x3c53	1.081
170	0x3c3c	1.059
171	0x3cd7	1.21
172	0x3cbf	1.187
173	0x3c78	1.117
174	0x3c32	1.049
175	0x3c99	1.149
176	0x3c1a	1.025
177	0x3c77	1.116
178	0x3cdb	1.214
179	0x3c45	1.067
180	0x3c8d	1.138
181	0x3bde	0.9834
182	0x3c98	1.148
183	0x3c0e	1.014
184	0x3c60	1.094
185	0x3c33	1.05
186	0x3cac	1.168
187	0x3c46	1.068
188	0x3c3e	1.061
189	0x3c59	1.087
190	0x3c9f	1.155
191	0x3bf1	0.9927
192	0x3c67	1.101
193	0x3c3e	1.061
194	0x3bac	0.959
195	0x3c55	1.083
196	0x3c57	1.085
197	0x3b81	0.938
198	0x3c5c	1.09
199	0x3c21	1.032
200	0x3caa	1.166
201	0x3c74	1.113
202	0x3c13	1.019
203	0x3c85	1.13
204	0x3c77	1.116
205	0x3c88	1.133
206	0x3c5d	1.091
207	0x3c33	1.05
208	0x3c42	1.064
209	0x3c97	1.147
210	0x3c56	1.084
211	0x3c2d	1.044
212	0x3c79	1.118
213	0x3c46	1.068
214	0x3ca5	1.161
215	0x3c1a	1.025
216	0x3c95	1.1455
217	0x3cdb	1.214
218	0x3c5c	1.09
219	0x3bee	0.991
220	0x3ca5	1.161
221	0x3cb5	1.177
222	0x3c47	1.069
223	0x3cad	1.169
224	0x3c42	1.064
225	0x3c3e	1.061
226	0x3c4c	1.074
227	0x3ca6	1.162
228	0x3cb6	1.178
229	0x3c2c	1.043
230	0x3b7c	0.9355
231	0x3c89	1.134
232	0x3c95	1.1455
233	0x3c45	1.067
234	0x3bf7	0.9956
235	0x3c53	1.081
236	0x3ca8	1.164
237	0x3bc2	0.9697
238	0x3c29	1.04
239	0x3c5d	1.091
240	0x3cef	1.233
241	0x3d12	1.268
242	0x3c7e	1.123
243	0x3ca2	1.158
244	0x3c31	1.048
245	0x3cde	1.217
246	0x3cd7	1.21
247	0x3be2	0.9854
248	0x3c3c	1.059
249	0x3c40	1.0625
250	0x3c50	1.078
251	0x3c1a	1.025
252	0x3c65	1.099
253	0x3cb9	1.181
254	0x3cc4	1.191
255	0x3bc2	0.9697

arith.constant33 f2 [512, 128]
0	0x2e89	0.1021
1	0x2c7b	0.07
2	0xad36	-0.0814
3	0x311d	0.1598
4	0x2c2e	0.0653
5	0x2e69	0.10016
6	0xad19	-0.07965
7	0xb18f	-0.1737
8	0x9f86	-0.007347
9	0x30e4	0.1528
10	0xb061	-0.1368
11	0x3050	0.1348
12	0x3468	0.2754
13	0xb351	-0.2286
14	0xad8f	-0.08685
15	0x310c	0.1577
16	0xa575	-0.02132
17	0x29eb	0.04623
18	0xb1a6	-0.1765
19	0xae33	-0.09686
20	0x9d64	-0.005264
21	0x310d	0.1578
22	0xb1da	-0.1829
23	0x3117	0.159
24	0x32e2	0.2151
25	0xafc4	-0.12134
26	0xaaae	-0.0522
27	0x2ca8	0.07275
28	0xa9bc	-0.0448
29	0x2985	0.04312
30	0xa99e	-0.04388
31	0x29cf	0.04538
32	0x306b	0.1381
33	0x2fd1	0.12213
34	0xa1de	-0.01146
35	0x3373	0.2328
36	0xb0f2	-0.1545
37	0x2e58	0.0991
38	0xaeb3	-0.1047
39	0x2c79	0.0699
40	0x3081	0.1407
41	0xa881	-0.0352
42	0x31ac	0.1772
43	0xa958	-0.04175
44	0xae59	-0.0992
45	0x309e	0.1443
46	0x2cf9	0.0777
47	0x32be	0.2107
48	0xaf13	-0.11053
49	0x2b94	0.0592
50	0xb063	-0.1371
51	0xb35f	-0.2303
52	0xaafd	-0.0546
53	0xb034	-0.1313
54	0x3392	0.2366
55	0x31bd	0.1793
56	0x2d39	0.0816
57	0x2a97	0.05148
58	0x3150	0.166
59	0xaa76	-0.05048
60	0xad9d	-0.0877
61	0xaf77	-0.11664
62	0xb2dc	-0.2144
63	0x2444	0.01666
64	0x2805	0.0314
65	0xa9c2	-0.04498
66	0x25c8	0.02258
67	0x2687	0.0255
68	0xb169	-0.1691
69	0x2a71	0.05032
70	0xb070	-0.1387
71	0xac5b	-0.06805
72	0x2945	0.04117
73	0x29a1	0.04398
74	0x2878	0.0349
75	0x2644	0.02448
76	0x2d52	0.0831
77	0xaaf2	-0.05426
78	0x2ea8	0.104
79	0x2d50	0.083
80	0x2a34	0.04846
81	0x1db3	0.005566
82	0xaf58	-0.11475
83	0x297a	0.0428
84	0xa919	-0.03983
85	0xaa67	-0.05002
86	0xac5a	-0.068
87	0x1d6e	0.005302
88	0x28b4	0.03674
89	0xb1ca	-0.1809
90	0xa9fd	-0.04678
91	0xaef2	-0.1085
92	0xac26	-0.0648
93	0xa8ba	-0.03693
94	0xa365	-0.01444
95	0x2b63	0.0577
96	0xadc9	-0.0904
97	0x30c2	0.1487
98	0xb1b0	-0.1777
99	0xaf24	-0.1116
100	0xabb1	-0.0601
101	0x2a80	0.05078
102	0x30ad	0.1461
103	0x3117	0.159
104	0x3271	0.2013
105	0x2d8d	0.08673
106	0xa39f	-0.014885
107	0xa9d8	-0.04565
108	0xa171	-0.01063
109	0xa8cc	-0.03748
110	0x292d	0.04044
111	0xb39a	-0.2375
112	0xaa74	-0.0504
113	0x1b72	0.003635
114	0x2ec4	0.1057
115	0x2665	0.02498
116	0x2c52	0.0675
117	0x290a	0.03937
118	0x3276	0.2019
119	0x1a5c	0.003105
120	0x2688	0.02551
121	0x33f2	0.2483
122	0x30d4	0.1509
123	0x292a	0.04034
124	0xa4ca	-0.0187
125	0xb13e	-0.1638
126	0x3020	0.1289
127	0x321e	0.1912
128	0x2aa0	0.05176
129	0x0c5c	0.000266
130	0xaf5c	-0.115
131	0xb00f	-0.1268
132	0x2a68	0.05005
133	0x284a	0.0335
134	0x9809	-0.00197
135	0x2c51	0.06744
136	0x325c	0.1987
137	0xa4ce	-0.01877
138	0xaf45	-0.1136
139	0x30d9	0.1515
140	0x2fea	0.12366
141	0xa70f	-0.02757
142	0xaee2	-0.10754
143	0xa9c4	-0.04504
144	0xa4e3	-0.01909
145	0x2a6c	0.05017
146	0xaf82	-0.1173
147	0xaad8	-0.05347
148	0x2e99	0.1031
149	0x1fab	0.00749
150	0xae5a	-0.09924
151	0xa084	-0.00882
152	0x302d	0.1305
153	0x2d24	0.0803
154	0xa700	-0.02734
155	0x30ae	0.1462
156	0x236d	0.0145
157	0x2919	0.03983
158	0xa51b	-0.01994
159	0x2d0e	0.079
160	0x32de	0.2146
161	0x28b9	0.0369
162	0x177f	0.00183
163	0xa567	-0.0211
164	0xa67b	-0.02531
165	0xab7a	-0.0584
166	0x2c63	0.06854
167	0x26c0	0.02637
168	0xb047	-0.1337
169	0x2ec5	0.1058
170	0x307a	0.1399
171	0xa8b8	-0.03687
172	0xaaa5	-0.0519
173	0x2dc4	0.0901
174	0x2d91	0.087
175	0x2ba8	0.0598
176	0xaeda	-0.10706
177	0x306f	0.1385
178	0xb068	-0.1377
179	0xb1eb	-0.1849
180	0xaddc	-0.09155
181	0xb073	-0.139
182	0x2cae	0.0731
183	0x2ebf	0.1054
184	0xad23	-0.08026
185	0xb43c	-0.2646
186	0xa763	-0.02885
187	0xaa5f	-0.04977
188	0xa69f	-0.02586
189	0xb1c3	-0.18
190	0x30a5	0.1451
191	0xabaf	-0.06003
192	0xacdc	-0.0759
193	0x2952	0.04156
194	0x337e	0.2341
195	0xaeb8	-0.105
196	0xade5	-0.0921
197	0xaad9	-0.0535
198	0xa930	-0.04053
199	0xab89	-0.05887
200	0xa86b	-0.03452
201	0xa82a	-0.03253
202	0x2d4a	0.08264
203	0xb09d	-0.1442
204	0x238d	0.01475
205	0xad74	-0.0852
206	0x282b	0.03256
207	0x2c5a	0.068
208	0x2e7b	0.10126
209	0xaff9	-0.1246
210	0xb2a6	-0.2078
211	0x95ea	-0.001444
212	0xb0fd	-0.1559
213	0xad4b	-0.0827
214	0xa6fb	-0.02727
215	0x3098	0.1436
216	0x2db2	0.089
217	0xb0e0	-0.1523
218	0xb0d6	-0.1511
219	0xb041	-0.1329
220	0xb01f	-0.1288
221	0x26d7	0.02672
222	0xa356	-0.01433
223	0xabe3	-0.0616
224	0xacbc	-0.074
225	0x250f	0.01976
226	0x3191	0.174
227	0xb1d9	-0.1827
228	0xa9ab	-0.04428
229	0xab29	-0.05594
230	0xa816	-0.03192
231	0x2ecc	0.1062
232	0x2b0f	0.05515
233	0x22e3	0.01345
234	0x2de0	0.0918
235	0xaa3a	-0.04865
236	0xa88f	-0.0356
237	0xaa40	-0.04883
238	0x29d8	0.04565
239	0xaeca	-0.1061
240	0x2a21	0.04788
241	0xa18c	-0.01083
242	0x2e97	0.10297
243	0x3253	0.1976
244	0x318a	0.1731
245	0xaf9c	-0.1189
246	0x2ac7	0.05295
247	0xae2d	-0.0965
248	0x29da	0.04572
249	0x3032	0.1311
250	0x2f91	0.1182
251	0xb082	-0.1409
252	0xb162	-0.1682
253	0xaf0a	-0.11
254	0xa8cd	-0.0375
255	0x3280	0.2031

arith.constant34 f2 [512, 128]
0	0x2b62	0.05768
1	0x2c96	0.07166
2	0xb007	-0.1259
3	0x238f	0.01476
4	0x2e1f	0.09564
5	0x2993	0.04355
6	0xabf8	-0.06226
7	0xac19	-0.064
8	0xaa44	-0.04895
9	0x2a81	0.0508
10	0xa78c	-0.02948
11	0x9dc9	-0.00565
12	0x287b	0.035
13	0xa43f	-0.01659
14	0x2e67	0.10004
15	0xadeb	-0.09247
16	0x2c91	0.07135
17	0xb09c	-0.144
18	0xb160	-0.168
19	0x27d4	0.03058
20	0x3012	0.1272
21	0xb022	-0.1292
22	0x2b91	0.0591
23	0x2dd8	0.0913
24	0x23d7	0.01531
25	0x2226	0.01201
26	0x2be5	0.06168
27	0xa23a	-0.01216
28	0xb14b	-0.1654
29	0xaf89	-0.11774
30	0xb031	-0.131
31	0xb17e	-0.1716
32	0x2687	0.0255
33	0xb020	-0.1289
34	0xb061	-0.1368
35	0xb142	-0.1643
36	0xa045	-0.00834
37	0xaee1	-0.1075
38	0xace9	-0.0767
39	0xaebd	-0.1053
40	0xadc6	-0.0902
41	0x263f	0.0244
42	0xb017	-0.1278
43	0x304d	0.1344
44	0xa7ee	-0.03098
45	0xafb3	-0.1203
46	0xa334	-0.01407
47	0xaf2a	-0.11194
48	0x286b	0.03452
49	0xa9f1	-0.04642
50	0xb081	-0.1407
51	0x2e4f	0.0986
52	0x1fb5	0.007526
53	0xaf16	-0.1107
54	0xa9c0	-0.04492
55	0x23c8	0.0152
56	0xa88a	-0.03546
57	0xb268	-0.2002
58	0xac39	-0.066
59	0x213c	0.01022
60	0xaa61	-0.04984
61	0xa311	-0.0138
62	0xa6f8	-0.02722
63	0xa5b5	-0.0223
64	0xa5ae	-0.02219
65	0x30e5	0.153
66	0x208e	0.008896
67	0xad81	-0.086
68	0xb058	-0.1357
69	0xacda	-0.0758
70	0xae47	-0.0981
71	0x2040	0.0083
72	0xa51d	-0.01997
73	0xabbc	-0.06042
74	0x2c4c	0.06714
75	0x2d31	0.0811
76	0xae26	-0.09607
77	0x281f	0.0322
78	0xb003	-0.1254
79	0xb208	-0.1885
80	0xab4b	-0.05698
81	0xaa2e	-0.04828
82	0x271a	0.02774
83	0x3198	0.1748
84	0xa4dc	-0.01898
85	0x315c	0.1675
86	0xb34e	-0.2283
87	0xb0e1	-0.1525
88	0xae2b	-0.0964
89	0xa8cf	-0.03757
90	0xacc8	-0.0747
91	0x2228	0.012024
92	0xa04c	-0.00839
93	0x2819	0.032
94	0xac40	-0.0664
95	0x2428	0.01624
96	0xac43	-0.0666
97	0x2f6d	0.116
98	0x2ebb	0.10516
99	0x2981	0.043
100	0x2e67	0.10004
101	0x2a6a	0.0501
102	0xac19	-0.064
103	0xb17a	-0.1711
104	0xafdb	-0.12274
105	0xa9eb	-0.04623
106	0x282f	0.03268
107	0x2a1d	0.04776
108	0xac2f	-0.06537
109	0xa43a	-0.01651
110	0xac5a	-0.068
111	0xad21	-0.08014
112	0xacc5	-0.0745
113	0x2801	0.03128
114	0xb43b	-0.2644
115	0x249b	0.01799
116	0x2dbd	0.08966
117	0xb001	-0.1251
118	0xaf34	-0.11255
119	0xa983	-0.04306
120	0x2630	0.02417
121	0x2080	0.00879
122	0xa3f3	-0.015526
123	0xa46e	-0.0173
124	0xaa10	-0.04736
125	0xb2c0	-0.2109
126	0xa4c2	-0.01859
127	0xaf92	-0.1183
128	0xa48d	-0.01778
129	0x2678	0.02527
130	0x2873	0.03476
131	0xae71	-0.10065
132	0x26c0	0.02637
133	0xa628	-0.02405
134	0xab38	-0.0564
135	0xb35b	-0.2299
136	0xafa5	-0.11945
137	0xb43f	-0.2654
138	0x2d31	0.0811
139	0x3129	0.1613
140	0x2d13	0.0793
141	0xb093	-0.143
142	0x27d3	0.03056
143	0xae03	-0.09393
144	0xb0a1	-0.1447
145	0x92f9	-0.000851
146	0xb141	-0.1642
147	0xaac7	-0.05295
148	0xa773	-0.0291
149	0xac8e	-0.07117
150	0x22dc	0.0134
151	0xa62e	-0.02414
152	0xa88a	-0.03546
153	0xa431	-0.01637
154	0x3410	0.254
155	0xb060	-0.1367
156	0xac6e	-0.0692
157	0x9c59	-0.004246
158	0xb169	-0.1691
159	0x28f3	0.03867
160	0x2e51	0.0987
161	0xa11e	-0.009995
162	0x2abb	0.05258
163	0x2fc9	0.12164
164	0x2514	0.01984
165	0xb09a	-0.1438
166	0x2b3e	0.05658
167	0xa926	-0.04022
168	0x1ebd	0.00658
169	0x2b29	0.05594
170	0x2d02	0.07825
171	0xaede	-0.1073
172	0x2efc	0.10913
173	0xa9b1	-0.04446
174	0xb0d5	-0.151
175	0x20ac	0.009125
176	0x2dbb	0.08954
177	0x2937	0.04074
178	0x2990	0.04346
179	0xaba8	-0.0598
180	0xafcf	-0.122
181	0x2e63	0.0998
182	0x29a0	0.04395
183	0x2891	0.03568
184	0xaedb	-0.1071
185	0x3313	0.2211
186	0xa9e6	-0.04608
187	0xa72e	-0.02805
188	0xac84	-0.07056
189	0xab88	-0.05884
190	0xb214	-0.19
191	0xaf94	-0.1184
192	0xa797	-0.02965
193	0xaf50	-0.11426
194	0x2a40	0.04883
195	0xa97a	-0.0428
196	0xa851	-0.03372
197	0xad18	-0.0796
198	0xad6e	-0.08484
199	0x2e65	0.0999
200	0xad58	-0.0835
201	0xaf53	-0.11444
202	0x2fb3	0.1203
203	0x2b7f	0.05856
204	0xa7fe	-0.03122
205	0x2750	0.02856
206	0xb1ff	-0.1874
207	0xb088	-0.1416
208	0x95ce	-0.001417
209	0x2d13	0.0793
210	0xaf3f	-0.1132
211	0xb19a	-0.175
212	0xac9c	-0.072
213	0xb388	-0.2354
214	0xb06c	-0.1382
215	0x2fd6	0.12244
216	0xaf11	-0.1104
217	0x3001	0.1251
218	0x2be9	0.0618
219	0x2d6e	0.08484
220	0xac64	-0.0686
221	0x2eec	0.10815
222	0xaccc	-0.07495
223	0xae7a	-0.1012
224	0xb317	-0.2216
225	0x2ef9	0.10895
226	0xa479	-0.01747
227	0x2c6f	0.0693
228	0x31dc	0.1831
229	0xb429	-0.26
230	0xadae	-0.08875
231	0xae6a	-0.1002
232	0xaf83	-0.1174
233	0xafa0	-0.11914
234	0x2744	0.02838
235	0xae15	-0.09503
236	0xaed8	-0.10693
237	0x21cb	0.011314
238	0x2803	0.03134
239	0x2446	0.0167
240	0x963d	-0.001523
241	0x2c42	0.0665
242	0x2bc0	0.06055
243	0xb160	-0.168
244	0xb003	-0.1254
245	0x2acd	0.05313
246	0xa418	-0.01599
247	0x2831	0.03275
248	0xad8d	-0.08673
249	0xad18	-0.0796
250	0x29ac	0.0443
251	0xb152	-0.1663
252	0xb01a	-0.1282
253	0xaea7	-0.10394
254	0x2e77	0.101
255	0xa418	-0.01599
